arm_interface/simulation/kinematics.ckpt (torch, 6471 bytes, 6 tensors)

weight f4 [20, 3]
00000000: 10a0 403e a3b3 85be e9ac b3bf b516 543f
00000010: a357 453f 8ac1 b73e 80a9 493e 9280 8d3e
00000020: 3d39 b0bf 0a85 853e 26af 023f b13d af3f
00000030: 8d04 93bf dcb5 9bbf 02f6 9fbe 10aa 333f
00000040: f8db 23bf 3008 cbbf baaa cb3e bf8b 1abf
00000050: 8487 6fbf 4bd7 413e 1d82 0b3f 722e 1b3f
00000060: b895 c13e 812c 963e 0d60 4a3f 833e a43f
00000070: c5d6 af3e ba01 5ebe 86c3 5ebe fe6f 333f
00000080: 34ab a33f ad12 e83e 85ba c3be 7824 9dbf
00000090: 3a2e afbe 688c f8be d73e bdbf 2336 cebe
000000a0: 7281 30bf 5c9c debe 07d7 873f 3309 a5be
000000b0: 8bd1 6a3f 9307 b03f d511 bf3e eaf2 97be
000000c0: cbfc 46bd 36c3 c6be 8b79 94bf c5ed 3c3f
000000d0: 79ac 303f a9e0 b03e 253e b1be b499 3cbf
000000e0: de34 32be 78b1 033f e686 363e 1839 b8bf
0.18811059 -0.26113614 -1.4037143 0.8284715 0.7708685 0.35889846 0.19693565 0.27637154
-1.3767468 0.26078063 0.51048505 1.3690702 -1.1485764 -1.2164874 -0.31242377 0.7018137
-0.6400752 -1.5861874 0.39778692 -0.60369486 -0.93566155 0.18929784 0.5449541 0.60617745
0.3780954 0.2933083 0.7905281 1.2831577 0.34343544 -0.21680346 -0.21754274 0.7009276
1.2786622 0.45326748 -0.3822824 -1.2276754 -0.34214956 -0.4854462 -1.4784802 -0.40275678
-0.6894752 -0.43478668 1.0612496 -0.3223358 0.9172599 1.3752311 0.37318292 -0.29677516
-0.048580926 -0.3882081 -1.1599592 0.7380031 0.6901317 0.34546402 -0.34617725 -0.7367203
-0.1740298 0.5144267 0.17824897 -1.4392424

bias f4 [20]
00000000: 6196 333f f747 07bf 1c57 133f 0c76 f2bd
00000010: 71d6 073e 2a56 843e 5754 403f 5957 01bf
00000020: c297 84bf ced5 3abf d37a 3b3f 878a 6e3f
00000030: ca59 e6be 27b1 823f aa15 f3be 9cfb 21bf
00000040: dfd4 7e3f 2aa3 02bf 077e 823f 869b d03e
0.70151335 -0.52844185 0.57554793 -0.11838922 0.13265397 0.25846988 0.7512869 -0.50523907
-1.0358813 -0.7298249 0.7323429 0.93180126 -0.4499038 1.0210313 -0.47477466 -0.6327455
0.99543566 -0.5103022 1.019471 0.40743655

weight f4 [20, 20]
00000000: afa3 623f d9e5 23bf 2b54 293f fddb 51bf
00000010: 56de 583f 4c69 bb3f 333b 653f e8cf 84bf
00000020: 1006 00bf c30b 0f3f 4d2d 12bf 6d5f 053f
00000030: 1fd0 d83e e853 d73e ab33 c5be 3d02 be3e
00000040: 37ec 4d3f 8b5d 26bf 6004 663d 6d07 5c3f
00000050: 00f3 ffbe c6c3 343f 38c0 53be fd75 363f
00000060: 8df4 35bf df22 15bf 63dc 26be 12d2 1e3f
00000070: 3862 183e 119c 1c3f e52d 4cbe 6c85 84be
00000080: 3f6f 313c 23ad 6abd bb7f 863f 03b5 4a3f
00000090: 823c d1be 3d30 5d3f ebd3 97be 4fd5 0ebf
000000a0: 68fb 0c3f d00b 90be 31ca 923e 6bd9 babd
000000b0: 724d bbbe efa4 5bbd 6494 833f c01a 13bf
000000c0: 67bd a0bf efa3 87bf e2c1 503f 23c3 413f
000000d0: 77eb 01bf ede9 923f 8d73 fdbe eabb 0cbf
000000e0: fea7 723f 626b d3be 7447 a53f f921 263f
000000f0: 89b1 df3e 8706 1a3e eff5 283f 05a7 553e
00000100: 511b afbe 66dc 95bb d6b9 ce3e 1f14 3abe
00000110: 1d2e 29bf 5893 6bbe 515e f53e 4299 463f
00000120: 18d1 bbbe fb64 c13e 2425 3ebe be3f 523e
00000130: 5a1d 013f 6abc 51bd 596a e33e 7830 2f3f
00000140: 0e80 503f be2e ed3d e15f 893f 5abb 1bbe
00000150: 91b2 4abe fe73 373e c514 993f 8417 dcbe
00000160: 1ecc d9be 5182 ab3e a6e7 1e3e 8d02 6e3f
00000170: 849f e9bd 009a 1b3f a80f d0bd 89de 133f
00000180: c7d8 493f 6a18 0ebe 5c95 cb3e 130b a33f
00000190: 4827 583f 0566 11bf 31ae 613f 869f bfbd
000001a0: ed58 48bc 381f 333e f356 8a3f a673 26bf
000001b0: ca80 87bf 61f1 69bf 7bef ab3e 3ed9 593f
000001c0: ebaf 37bc 456d 2f3f 3264 01bf 5035 08bf
000001d0: 3068 993f 3f38 84be d91f 323f 746d 9d3f
000001e0: 1910 5ebe f48a 133f b502 db3e a377 433f
000001f0: f1ea 2bbf 74dc 34bf 08e5 903e 8d69 d83e
00000200: 69c3 00bf 0b67 e6be 4118 243f 864d 2b3f
00000210: c23b 5ebf 6159 4c3f fdb2 a53e 1f31 0bbe
00000220: cdeb 003f 3179 133f 64d1 303f 40c7 793e
00000230: 9e78 40bf 5e3e 9c3e 641e 81bf 13c3 d53e
00000240: 8061 46bd c7cd 60be f5d5 49bf cf9c c53e
00000250: b931 ee3e 94ba a5be 7852 d2bd 9e98 68bf
00000260: dca3 143e a119 f7be a23f ef3e b06d cbbe
00000270: 2843 55bf a997 773e 2fdb 90be f151 9cbf
00000280: 5bca c9bd 3fb0 21bf eb5d 16bb 9c9f 7abe
00000290: 2d6d fd3e e5c6 48bd d3f9 acbd 5f66 c5be
000002a0: 5662 35be 0eec a4bf f08d d03d 1591 f4bb
000002b0: a33d 793e 9bbd 253f 31ef 18bf 34cb 9bbf
000002c0: 5d41 00bd ee6e 54bf dad2 fa3e 25bc bdbe
000002d0: dc26 6ebe bc75 503d 3330 e7be 37e7 55be
000002e0: 6d1a d13e a8a9 813d 3f14 1cbf b7cd 573e
000002f0: b846 f13e aa13 4bbe 4018 dabd a87b 3ebf
00000300: a127 f23d 83bc e3bc 292c 85bd fff7 52be
00000310: 5a89 abbe cbcd 0cbe aeaa ddbe f25e 50be
00000320: 9e57 003f f9ad 8bbd 63c0 093f 9595 c6bd
00000330: b150 5dbe 52fb 2e3e 3710 973f 590c 24bf
00000340: a685 80bf 3946 83bd c1a2 e53e 937e 8f3f
00000350: 2aaa e4be 6a23 853f d34e c7bd 6b72 003e
00000360: 6647 913f ebdf 8cbe 23e2 4b3f 2308 7a3f
00000370: 803b 4e3e 5b66 0f3f acf1 75bd 06e4 f2bd
00000380: eda6 fabd 0603 a63e d809 313e e2a6 de3e
00000390: c6f0 553f 002d b43f feef c1be 3330 38be
000003a0: 34a9 373e c2f2 51bf 483b 4a3f e6d3 803f
000003b0: 9226 9fbb 471f 293f 917c 4fbf 769f fb3d
000003c0: 803c 033f a93c 8cbe e180 8f3e b7f4 efbe
000003d0: 2cd4 7e3e b8a3 f83e abd9 c73e ea54 40bf
000003e0: 6b31 80be b683 123f b0be 12bf 7d10 0b3e
000003f0: 5fb2 213f 68fa c43e 22f6 63bf 0f9c 003f
0.8853101 -0.64022595 0.66144055 -0.819763 0.8471426 1.4641509 0.89543456 -1.0375948
-0.5000925 0.5587732 -0.57100374 0.52098733 0.42346284 0.42056203 -0.38515982 0.37111083
0.8043856 -0.64986485 0.056156516 0.8594883 -0.49990082 0.70611227 -0.20678794 0.71273786
-0.7107628 -0.58256334 -0.16295008 0.6203929 0.14881217 0.6117564 -0.19939382 -0.25883043
0.010829746 -0.057294022 1.050773 0.7918245 -0.40866476 0.8640173 -0.29653868 -0.55794233
0.55071115 -0.28134012 0.28669885 -0.091235004 -0.36582524 -0.05362409 1.027966 -0.5746269
-1.2557801 -1.0596904 0.8154584 0.7568838 -0.50749916 1.1477638 -0.4950222 -0.54974234
0.94787586 -0.41292864 1.2912431 0.6489559 0.43690136 0.15041552 0.66000265 0.20864494
-0.34200528 -0.0045733927 0.40376157 -0.18171738 -0.6608599 -0.23005426 0.4792352 0.775776
-0.36682963 0.37772354 -0.18568856 0.20532128 0.5043541 -0.051205076 0.44417074 0.6843333
0.81445396 0.11581181 1.0732385 -0.15208188 -0.1979468 0.17915341 1.1959463 -0.4298669
-0.42538542 0.3349786 0.15518054 0.9297264 -0.11407378 0.6078186 -0.10159236 0.57761437
0.788464 -0.138765 0.3976239 1.2737755 0.8443494 -0.56796294 0.8815642 -0.093565986
-0.012228233 0.17492378 1.0807785 -0.65020216 -1.0586178 -0.9138394 0.33581147 0.8509711
-0.011211376 0.6852611 -0.5054351 -0.5320635 1.198492 -0.25824162 0.69579846 1.2299027
-0.21685828 0.576339 0.42775503 0.76354426 -0.6715537 -0.70648885 0.28299737 0.4226803
-0.5029817 -0.4500049 0.6409951 0.66915166 -0.86809933 0.7982388 0.3236312 -0.13592957
0.50359803 0.576068 0.69069505 0.24392414 -0.7518405 0.30516332 -1.00874 0.41750392
-0.048432827 -0.21953498 -0.788421 0.38596198 0.4652231 -0.3236891 -0.10269636 -0.90857875
0.14515632 -0.4826174 0.46728235 -0.39732122 -0.833056 0.24178948 -0.28292224 -1.2212507
-0.09853049 -0.63159555 -0.0022944163 -0.24474949 0.49497357 -0.049017806 -0.08446088 -0.38554665
-0.17713293 -1.2884538 0.101833224 -0.007463584 0.24339919 0.6474244 -0.5973998 -1.2171388
-0.031312335 -0.82981765 0.48988992 -0.37057605 -0.23257011 0.05089353 -0.4515396 -0.20888983
0.40840474 0.063311875 -0.60968393 0.21074568 0.47124267 -0.1983172 -0.106491566 -0.74407434
0.11823965 -0.02779985 -0.065025635 -0.20602416 -0.33503228 -0.13750379 -0.4329428 -0.20348719
0.50133693 -0.06820292 0.53809184 -0.09696499 -0.21612813 0.17088059 1.1801823 -0.6408134
-1.0040786 -0.06409878 0.44850734 1.1210502 -0.44661075 1.0401433 -0.097318314 0.12543647
1.1349914 -0.27514586 0.7964193 0.97668666 0.20139885 0.5601556 -0.06004493 -0.11859898
-0.1223887 0.32424182 0.17288911 0.43486696 0.83570516 1.4076233 -0.37878412 -0.17987137
0.1793564 -0.82011044 0.78996706 1.0064666 -0.004856893 0.6606335 -0.8104945 0.12286274
0.5126419 -0.2739003 0.28028014 -0.4686639 0.24885625 0.48562407 0.39033255 -0.7512957
-0.25037703 0.57232225 -0.57322216 0.13580509 0.631628 0.38472295 -0.89047444 0.50238127

bias f4 [20]
00000000: 057d 93be bcc8 1dbe 2bdf 493f 1791 b03e
00000010: f3f4 f93e a196 f13e 8e77 553f 3162 08be
00000020: eef8 383e ada3 bebc 747e 2b3f c8ed e5be
00000030: dbb7 a4be 975d fabd 8442 043f 235a ec3e
00000040: 99d0 a13d a78c d0be 5f61 bc3d 7e6b 023e
-0.2880632 -0.15408605 0.7885615 0.34485695 0.48819694 0.47185233 0.8338555 -0.13318707
0.18063709 -0.023271406 0.6698983 -0.44907975 -0.3217152 -0.12224882 0.51663995 0.4616252
0.07901115 -0.4073231 0.091982596 0.12736318

weight f4 [2, 20]
00000000: 35f7 bebe bc9f c7bd 3fb6 ed3e fa6b 49bf
00000010: 9773 193f 6097 cc3d 0a14 41bf 2692 18bf
00000020: 3ef7 40bf 8e50 403e 2828 193f 1270 00bf
00000030: 9bdb f73e d104 f93e eb88 2bbf 9510 f63e
00000040: 10bf 1e3f 85a5 d93e fd1a 0a3f bbbc bbbe
00000050: 21f1 3c3f fe37 443f fd54 eb3e 9ac8 8a3e
00000060: 136b e93e 2c43 2dbf 69f0 f1bd 05fa f63e
00000070: d8a9 fabe c3b8 2dbf 8380 0d3f a37b 113f
00000080: 6d5b 193f 546c 2c3f 0c21 043f c339 24bf
00000090: cdf3 6dbe 4439 433f b097 d9be c78c 25bf
-0.3729798 -0.09747264 0.46428105 -0.78680384 0.59942 0.0998981 -0.754212 -0.59598005
-0.7537726 0.18780729 0.598269 -0.50171006 0.48409733 0.48636487 -0.67005795 0.48059526
0.6201029 0.42509094 0.5394743 -0.36667427 0.73805434 0.7664794 0.45963278 0.27106172
0.45589504 -0.6768062 -0.11813433 0.48237625 -0.48957705 -0.6786005 0.5527422 0.5682928
0.5990513 0.67352796 0.51612926 -0.6415064 -0.23237534 0.76259255 -0.4249854 -0.64667934

bias f4 [2]
00000000: 6ef2 32bf 26b1 4bbe
-0.6990117 -0.19891796
