arm/simulation/kinematics_inverse.ckpt (torch, 6343 bytes, 6 tensors)

weight f4 [20, 2]
000000 f5 50 58 3f 5f 04 31 bf 10 7c b8 bf 65 9e 5f 3f
       0.8449853 -0.69147295 -1.4412861 0.87351066
000010 e0 06 b8 be 02 c4 75 bf ac 8a 25 bf ee 81 20 bf
       -0.35942745 -0.9600221 -0.6466472 -0.62698257
000020 61 a4 12 3f c5 79 61 3f 1d 8b 0c bf 18 89 81 bf
       0.5728207 0.8807643 -0.5489977 -1.0119963
000030 2d cc 79 3d db cb 96 bf 05 c7 ae bf 8f 9f 68 bf
       0.060985733 -1.1780962 -1.3654486 -0.9086847
000040 6e 0b 7c bf 9f fc 7f 3f a2 1c ca 3e 35 fd 6b 3e
       -0.9845494 0.99994844 0.3947497 0.2304581
000050 04 e5 89 3f d8 f6 a5 bf c3 2a 12 3f e6 62 ae bf
       1.0773015 -1.2965956 0.570965 -1.3623931
000060 b2 e1 bc 3f 73 67 7c 3f f3 c3 1f 3d 15 3d 0e 3f
       1.4756377 0.9859535 0.03900523 0.55561954
000070 a6 07 5e 3f 82 51 84 bf 05 34 dd bf 03 08 8f bf
       0.8673042 -1.0337374 -1.72815 -1.117432
000080 74 2c 6c 3f d5 6d 1c bf 81 fb 26 3f 8d 64 8e bf
       0.9225533 -0.6110509 0.65227515 -1.1124436
000090 f4 b7 24 3f c5 ce 67 3f 43 89 2e be 1e 29 fe 3e
       0.6434319 0.9054988 -0.17044549 0.49640745

bias f4 [20]
000000 24 8f dc 3e 64 e6 c6 be 43 20 0a 3f eb fc a4 be
       0.43077958 -0.3884765 0.5395548 -0.3222421
000010 ce da a6 bc 3f a8 31 3f 43 0e 32 3f 7b 1a f4 3e
       -0.020368006 0.6939735 0.6955301 0.47676453
000020 19 cf ef 3e 6c db 84 bf ab a7 1d be 00 8e 19 3f
       0.4683769 -1.0379462 -0.15395992 0.599823
000030 48 bb 01 bf ba 7e 9f 3e dc ae f9 3e cf 46 2e 3f
       -0.50676394 0.31151372 0.4876622 0.68076795
000040 6b 00 ab 3d ae a1 a7 3e 62 84 6b bf a8 50 0b bf
       0.08349689 0.3274054 -0.91998875 -0.54419947

weight f4 [20, 20]
000000 a0 77 69 bd 33 ed 29 3e 3b 5c 30 3f 9f bb 82 3e
       -0.05699885 0.1659439 0.6889073 0.2553377
000010 56 6e 76 be dd 6e 73 3f fd 9d 96 3d a2 e0 24 3f
       -0.24065527 0.9509104 0.073543526 0.6440526
000020 b2 0e 5c 3e fa 0f 5d 3d 8f be b9 be ef 3c de 3e
       0.21489981 0.053970315 -0.36278197 0.43405864
000030 8b 3d 20 bf ee a5 a1 be 60 b0 f2 3d 7b 73 ab 3f
       -0.6259391 -0.31571907 0.11850047 1.3394617
000040 d8 be 0b 3d a7 c1 29 bc ca 5b b5 be 62 df 57 3e
       0.03411755 -0.010361112 -0.35421592 0.21081308
000050 3b 34 26 bf dc 76 92 3f c0 bc 43 be 23 01 b7 3b
       -0.6492345 1.1442523 -0.19114971 0.0055848523
000060 9f a1 70 3e 91 5b 54 3e af 99 f0 be 4f f5 e2 3e
       0.23499154 0.20738055 -0.4699225 0.4432778
000070 c7 e0 c8 bd c5 4a 50 3e 15 b8 67 be 02 74 5c bf
       -0.09808498 0.20341022 -0.22628815 -0.86114514
000080 53 6e a5 be 11 bf 89 3b 54 73 8f bf 88 36 01 3f
       -0.32310733 0.004203685 -1.120707 0.50473833
000090 c7 39 a8 bf b1 ba 1f bf b2 a5 0e be 47 c1 08 3f
       -1.3142632 -0.62394243 -0.13930395 0.5341992
0000a0 96 10 d7 3e 25 b3 52 bf a2 eb 80 3f 27 45 b5 bc
       0.42004842 -0.823046 1.007191 -0.022127701
0000b0 69 03 09 bf 79 bb 80 3f a7 43 4d 3f 22 6d 64 3f
       -0.5352083 1.0057212 0.80181354 0.89229023
0000c0 49 c5 0f bc bd f5 82 bc 81 d0 86 3e 55 0c c9 3f
       -0.008775064 -0.015986318 0.2633095 1.5706888
0000d0 b1 fc 46 bf 96 84 5d bd b4 67 91 3f aa cc 26 3f
       -0.77729326 -0.054081522 1.1359773 0.6515604
0000e0 d5 53 f7 3e 91 1a 9b 3f a9 e5 53 bf 7f db e2 be
       0.48306146 1.2117482 -0.8277231 -0.44308087
0000f0 62 de da 3d 8b 66 0a bf 30 a4 33 bf 2e d0 95 3d
       0.106869474 -0.5406272 -0.70172405 0.07315098
000100 15 36 81 be 14 c3 4b bf 42 37 60 ba dd 5a 03 bf
       -0.25236574 -0.7959454 -0.0008553156 -0.5131052
000110 88 e2 57 be 46 71 10 be d5 e6 af 3d 10 91 8c bd
       -0.21082509 -0.1410571 0.085889496 -0.06863606
000120 76 8d 03 3f 70 27 9d 3e 46 93 84 bb da 4a 7c bf
       0.5138773 0.3069415 -0.0040458767 -0.98551714
000130 ac 01 c0 3e 9e 2b 89 3e a5 8c c4 3e 40 93 84 be
       0.37501276 0.2679109 0.38388553 -0.25893593
000140 b4 71 2d 3e c0 c2 8e be 1b 7c fa be 2e 63 53 be
       0.16937906 -0.27882957 -0.4892281 -0.20643303
000150 8e 73 25 3f 63 cd 1f bf 38 5e 4e be 6b ff aa bf
       0.6462945 -0.6242277 -0.20153129 -1.3359197
000160 3a 3f 66 3e c2 77 c4 be f5 20 87 bd b3 be 08 3e
       0.22485057 -0.38372618 -0.06598083 0.13353996
000170 e0 ad a7 3f 22 30 1b 3f 32 47 6d 3e 4a ec bb bf
       1.3099937 0.6062032 0.2317169 -1.4681485
000180 ff c7 d4 3e 34 58 cb bd 98 2d 03 3e 18 c7 46 be
       0.41558835 -0.09928933 0.12810361 -0.19411886
000190 7f a1 7f 3f 8c b7 cd bf 5a 98 9a 3f f6 65 d3 3d
       0.998558 -1.6071639 1.2077744 0.10322182
0001a0 a1 71 87 be 61 64 67 3f f3 e8 b7 3f bf 5d 22 3e
       -0.2645388 0.9038754 1.4367965 0.15856074
0001b0 6a 2c 3c be 34 c2 70 be a4 1c 0a 3f b5 41 42 40
       -0.18376318 -0.23511583 0.5394995 3.0352604
0001c0 f4 89 fd bd 18 bd 56 3d d5 40 f9 3f ac 82 72 3e
       -0.12379828 0.052426428 1.947291 0.2368266
0001d0 25 1d ac 3f cf 4e c8 3f e8 30 12 bf 5e 8e 05 bf
       1.3446394 1.564905 -0.57105875 -0.5217036
0001e0 7e 1a 02 be 16 4b 40 3e 87 cc a9 3f 5d 87 6e be
       -0.12705418 0.18778643 1.3265542 -0.23293824
0001f0 5d 11 2f be 97 48 89 3f 1c bd ba 3e 18 f5 77 3e
       -0.17096467 1.0725278 0.36472404 0.2421459
000200 16 1f 23 bd 7c 0e 44 bc ce 26 d6 be 1f 4d 33 3f
       -0.039824568 -0.011966344 -0.4182648 0.7003955
000210 a3 eb 95 be 33 7b ed bd 3e 19 2c 3e 03 03 56 3f
       -0.2928134 -0.11595764 0.16806504 0.83598346
000220 1d 06 a9 bb 0b c1 74 3c 4b 6d 47 bf da c6 3d bd
       -0.0051581995 0.014938603 -0.7790114 -0.046332218
000230 d8 36 01 3f fb 21 33 bf 99 67 8a 3f 76 9a bd 3e
       0.5047431 -0.69973725 1.0812865 0.37031907
000240 35 20 cf be 81 0e 8f 3f b7 22 f5 3e 8d 87 73 3f
       -0.4045426 1.1176301 0.47878048 0.9512871
000250 de 95 bc 3d ae 39 96 be 7e 7b 96 3e a9 d2 83 3f
       0.092082724 -0.2934088 0.29391092 1.0298663
000260 a4 19 84 bf 19 d4 d3 bd e5 57 1d 3f 43 e8 94 3f
       -1.0320325 -0.10343189 0.6146224 1.1633381
000270 09 1c ad 3e 6d 15 2e 3f 3c 1d e5 be f6 48 a4 be
       0.33810452 0.68001443 -0.44748867 -0.32086915
000280 eb c6 7b 3e 34 ed 18 bd f7 1a a9 3e 56 e8 44 be
       0.245876 -0.03733559 0.33028385 -0.19229254
000290 05 d6 65 3e 0d d6 84 3e d0 98 fd 3e d5 89 54 be
       0.22444923 0.25944558 0.4953065 -0.20755704
0002a0 fa ee c3 be 81 74 e2 bd 38 9f 25 3f 99 f1 75 3f
       -0.38268262 -0.110573776 0.64696074 0.96071774
0002b0 b5 4a f0 39 91 91 7f 3e 7f e8 10 3f a0 b7 04 3e
       0.00045832028 0.24957873 0.5660476 0.12960672
0002c0 03 ec 00 3f 48 93 2a 3f 83 c3 65 be 52 b1 6a be
       0.50360125 0.66630983 -0.22437863 -0.22919205
0002d0 80 d9 55 3e c7 03 2a bd fb 28 cc 3f 14 e4 86 3e
       0.20883751 -0.04150751 1.5950006 0.26345885
0002e0 77 5a bd be ce 27 c6 3f 3c a0 85 3e aa 89 97 3f
       -0.36983082 1.5480897 0.26098812 1.1838887
0002f0 a9 03 8f 3d 93 83 fc 3d a9 21 84 be b1 6f c8 3f
       0.0698312 0.12329783 -0.2580693 1.5659086
000300 fe 69 a5 bf 62 a0 9f be 80 d8 4b 3f 6b cd d0 3f
       -1.2922971 -0.3117705 0.7962723 1.6312689
000310 2b 1b de 3e a1 a8 c2 3e 98 00 f1 be c9 2d 16 bd
       0.43380103 0.3801928 -0.47070765 -0.036664758
000320 03 c1 60 3e 8c 47 9c bc ea 29 ce 3e b0 3c 6a 3e
       0.21948628 -0.019077085 0.40266353 0.22874713
000330 09 ad e0 3d 72 ee b0 3e b1 4a ba 3e ad c3 d0 3d
       0.10970504 0.3455692 0.3638511 0.10193572
000340 27 a8 b0 be 74 f2 46 be dd 71 11 3f 93 be 2b 3f
       -0.3450329 -0.19428426 0.56814367 0.6708767
000350 bf 24 09 be d1 70 bb be 22 7e bb 3e bb d0 c2 3e
       -0.13392924 -0.3660951 0.3661967 0.38049874
000360 db 6e 94 b9 90 ea b8 3e c1 ba b2 be 70 b0 0e be
       -0.00028311354 0.36116457 -0.34908107 -0.13934493
000370 77 f2 89 be f2 0a cb 3e 8d 50 ce be 61 aa b6 3d
       -0.26942798 0.39656788 -0.4029583 0.08919216
000380 e1 a3 a5 3b a7 87 b2 3c 48 ee 9d be 1d 26 82 bd
       0.0050549363 0.0217932 -0.30845857 -0.06354926
000390 f1 c5 cd 3d cc 76 39 3e 2b 4d ae be 45 3e 6c bf
       0.1004752 0.18111724 -0.3404325 -0.92282516
0003a0 4a ca c6 bd c0 e6 a0 bd 8a 00 8b be 3d a6 af be
       -0.09706552 -0.07856512 -0.2714885 -0.34306517
0003b0 1a 5f 6d bf dc 00 84 bf fc 8d 1d be b6 a5 af bd
       -0.9272324 -1.0312762 -0.15386194 -0.08576529
0003c0 0e a2 24 be f9 b0 4e 3e c4 e1 6b 3f 2e e8 6b 3d
       -0.16077444 0.20184697 0.92141366 0.05759447
0003d0 40 ec 2e be 00 8b 96 3f 6e 7d bc 3e 1c 8c 07 3e
       -0.1708231 1.176117 0.36814445 0.13237041
0003e0 5c 2a 85 3e c3 39 cf be f0 8c 35 3e 4b f7 2a 3f
       0.2600888 -0.40473756 0.17729545 0.6678359
0003f0 97 d8 37 be 9e 33 37 3e 4c 48 31 3e 15 db 20 3f
       -0.17953716 0.17890784 0.17312735 0.6283429

bias f4 [20]
000000 ec fb 52 be 1d 06 dc be d5 30 09 bd 40 2c 47 3d
       -0.20603913 -0.42973414 -0.033493835 0.048626184
000010 bd 08 20 3e f4 f9 02 3e 7a 52 36 3c 9f 99 0a 3e
       0.15628333 0.12790662 0.011128062 0.13535164
000020 94 44 3e be 03 20 90 3d b7 7c 42 3e ba ec 42 3e
       -0.18580848 0.07037356 0.18992887 0.19035617
000030 03 3e 21 bd 09 21 00 be 7d 7d b4 3c fa 14 b3 3e
       -0.03936578 -0.12512602 0.022032494 0.3497694
000040 89 b6 9a 3e 45 70 74 3d b1 b2 90 be 34 0b a8 3a
       0.30217388 0.05967738 -0.2826133 0.0012820722

weight f4 [3, 20]
000000 ac 2f 87 bb 9d d1 a0 3e ef 5d d7 3d b8 f4 4b bd
       -0.004125556 0.31409922 0.10515963 -0.04979393
000010 63 59 79 3e e3 6e 91 be 59 87 a3 3e 8a bc 2f be
       0.24350505 -0.28404912 0.319392 -0.17161766
000020 5a c3 d9 3e 4d 59 98 be 6c 97 ef 3d d3 fc be be
       0.42531854 -0.2975563 0.11698803 -0.37302265
000030 1e 9b e9 3e b9 8d 35 bf f8 ed 01 3e b9 6e a8 be
       0.45626158 -0.70919377 0.12688434 -0.32896975
000040 15 b1 12 be b5 c4 84 3e 1f 38 8a 3f 6b bf 04 3f
       -0.14325364 0.25931326 1.0798377 0.5185458
000050 a8 42 fa bb 14 79 db 3e 02 55 b0 be e7 dd b9 be
       -0.0076373406 0.42865813 -0.34439856 -0.3630211
000060 8f ab c1 3e bc b8 8c be 2d 53 71 3e 19 b5 d0 be
       0.378262 -0.2748469 0.23566885 -0.40763167
000070 d3 15 c0 3e 67 46 95 be 0f 77 89 3e c2 ae 30 be
       0.3751665 -0.29155275 0.26848647 -0.17254165
000080 72 16 7b 3e 39 ee a4 bd 99 57 88 3e 56 14 89 be
       0.24520281 -0.0805325 0.26629332 -0.26773328
000090 1f 85 a0 be 24 18 39 be c1 25 ea 3d 7b b6 da 3e
       -0.31351563 -0.18075615 0.11432982 0.42717347
0000a0 81 42 95 3e 18 1d d7 3d eb fe 87 bf 22 30 45 be
       0.291523 0.10503596 -1.062467 -0.19256642
0000b0 91 5e fb bc 73 ed 9e be 94 a5 59 3e 7f 40 87 bf
       -0.030684741 -0.31040534 0.2125457 -1.0566558
0000c0 bb 87 51 3e 29 34 d2 be 9c 0a 5d 3f 6b b6 2b be
       0.20461933 -0.4105542 0.86344314 -0.16768806
0000d0 53 91 ea 3e 9b 0e 1e 3f 49 e1 cb 3e 37 61 44 be
       0.45814 0.61741036 0.39820316 -0.1917771
0000e0 d5 cd 1b bf f1 65 9e be 49 5f 7a bf 81 12 b7 3e
       -0.6086095 -0.3093715 -0.97801644 0.35756305

bias f4 [3]
000000 a6 3c f0 3d f1 a2 d4 bd 95 72 fb bd
       0.11730318 -0.10382641 -0.12277714
